2layerLRC_split.npz (npz, 6998 bytes, 22 tensors)

weight_subscale_0 f8 [1, 8]
000000 00 00 00 00 00 00 00 00 00 00 00 00 00 00 00 00
       0.0 0.0
000010 76 78 5d 53 ad 3c ec 3f c2 d0 66 92 b3 91 ea 3f
       0.8824068668580043 0.8302858218580911
000020 bc ea f3 65 67 a6 e7 3f 10 7d 75 f5 c9 37 e2 3f
       0.7390629760041842 0.5693101686592019
000030 27 47 ee 19 fc dc e9 3f 1d 29 59 d4 af 39 ec bf
       0.8082256800136961 -0.8820418498446859

bias_subscale_0 f8 [1]
000000 d2 17 a5 47 45 ce e0 bf
       -0.5251795195879316

weight_subscale_1 f8 [1, 22]
000000 00 00 00 00 00 00 00 00 c6 d7 1c 2b 62 f3 c3 3f
       0.0 0.1558649740706512
000010 00 00 00 00 00 00 00 00 92 9c d1 ef 2c 2c d0 3f
       0.0 0.25269626064113837
000020 5c 9f d2 06 3f bb cc 3f 4c 1f 42 32 da 60 d0 3f
       0.22446430047170451 0.25591139705692423
000030 91 84 11 23 72 f8 c3 bf 00 00 00 00 00 00 00 00
       -0.1560194655640186 0.0
000040 00 00 00 00 00 00 00 00 00 00 00 00 00 00 00 00
       0.0 0.0
000050 00 00 00 00 00 00 00 00 df 6c 89 24 0b 2e a4 3f
       0.0 0.03941378422742913
000060 00 00 00 00 00 00 00 00 00 00 00 00 00 00 00 00
       0.0 0.0
000070 48 38 39 98 0b 61 06 bf 00 00 00 00 00 00 00 00
       -4.2684713687721686e-05 0.0
000080 00 00 00 00 00 00 00 00 00 00 00 00 00 00 00 00
       0.0 0.0
000090 d3 e9 29 c6 65 11 e3 3f a6 28 60 a3 0c 8c d8 3f
       0.595873724974178 0.3835479350533525
0000a0 3c b2 a1 77 24 9b d2 3f 60 4c 71 a4 b6 94 38 3f
       0.2907191437032315 0.00037507494966355047

bias_subscale_1 f8 [1]
000000 46 1d 83 79 c7 8c e1 bf
       -0.5484349606785279

weight_subscale_2 f8 [1, 8]
000000 00 00 00 00 00 00 00 00 00 00 00 00 00 00 00 00
       0.0 0.0
000010 00 00 00 00 00 00 00 00 dc e6 a1 8a d4 6d e3 3f
       0.0 0.6071570117630603
000020 6d e1 fa d6 eb d0 e4 3f 49 25 2f 47 bf 36 d5 3f
       0.6505030821636361 0.33146650268152605
000030 01 62 28 d1 f2 85 d1 3f 30 49 63 13 dd 28 b6 bf
       0.27380056787072254 -0.08656102870307758

bias_subscale_2 f8 [1]
000000 e2 5d 22 61 f5 b5 b9 bf
       -0.10043271657411126

weight_subscale_3 f8 [1, 32]
000000 00 00 00 00 00 00 00 00 00 00 00 00 00 00 00 00
       0.0 0.0
000010 00 00 00 00 00 00 00 00 5a 43 d5 2a 2b e4 93 bf
       0.0 -0.019425081719706007
000020 22 9a fc f7 38 67 ef 3f ad 1e 9b 4c 1a 2d c0 3f
       0.9813504069796333 0.12637642612957248
000030 ac 83 3d 22 9d a4 e7 3f 26 ec c6 48 09 73 d8 3f
       0.7388444584613487 0.38202125651486296
000040 00 00 00 00 00 00 00 00 00 00 00 00 00 00 00 00
       0.0 0.0
000050 00 00 00 00 00 00 00 00 5a 43 d5 2a 2b e4 93 bf
       0.0 -0.019425081719706007
000060 72 58 82 f9 e1 54 91 3f 00 00 00 00 00 00 00 00
       0.016925364354925816 0.0
000070 a2 93 e7 13 c0 0a d8 3f 00 00 00 00 00 00 00 00
       0.3756561464672875 0.0
000080 00 00 00 00 00 00 00 00 00 00 00 00 00 00 00 00
       0.0 0.0
000090 00 00 00 00 00 00 00 00 44 dc c3 58 9f 77 c6 bf
       0.0 -0.17552558740837487
0000a0 08 2b 08 a3 03 2c e1 3f 80 cc 1b a6 85 25 b6 3f
       0.5366228279320646 0.08651004128823736
0000b0 6e e4 1e 8d 64 a3 b4 bf 12 3f ab ed 9c b9 d8 bf
       -0.08061817593888218 -0.3863289185510307
0000c0 00 00 00 00 00 00 00 00 00 00 00 00 00 00 00 00
       0.0 0.0
0000d0 00 00 00 00 00 00 00 00 5a 43 d5 2a 2b e4 93 bf
       0.0 -0.019425081719706007
0000e0 90 e8 f5 cd 5d 96 d2 3f 9c eb a8 ee af ca c6 3f
       0.29042763818109396 0.1780605235415721
0000f0 82 e1 fd 01 a1 b5 e0 3f 50 48 ff ba bf 22 f3 3f
       0.5221715010548424 1.195983629663278

bias_subscale_3 f8 [1]
000000 73 4d 93 24 dd d3 a8 bf
       -0.048491392817278454

weight_subscale_4 f8 [1, 32]
000000 00 00 00 00 00 00 00 00 00 00 00 00 00 00 00 00
       0.0 0.0
000010 00 00 00 00 00 00 00 00 19 75 0a ef 74 0d e0 3f
       0.0 0.5016426724211299
000020 4c b5 9c 64 03 9e de 3f 8c ff 59 57 a3 e3 c3 3f
       0.47839436364559584 0.1553844620248096
000030 08 64 e4 51 5e cf e0 3f 44 08 54 fd 25 42 b0 bf
       0.5253135299163896 -0.06350934443256145
000040 df 77 ed c9 5d f3 d0 3f 44 dc 6a 59 31 a6 b8 3f
       0.2648539039563484 0.09628590043108526
000050 00 00 00 00 00 00 00 00 00 00 00 00 00 00 00 00
       0.0 0.0
000060 89 25 a2 b0 43 eb c5 3f 87 18 6f 44 ce 36 b4 3f
       0.17124220013310446 0.07896126909972355
000070 58 88 d1 5f 1b 33 bd 3f ed e5 b7 56 2a 2d db bf
       0.11406107987707637 -0.42463167637433125
000080 00 00 00 00 00 00 00 00 00 00 00 00 00 00 00 00
       0.0 0.0
000090 00 00 00 00 00 00 00 00 00 00 00 00 00 00 00 00
       0.0 0.0
0000a0 4f e7 1e 68 87 32 dc 3f 65 cd 0e 4a c5 ac e2 3f
       0.44058404129065293 0.5835901686136081
0000b0 ff 43 4b 7f 92 16 2a 3f 44 08 54 fd 25 42 b0 bf
       0.00019903696342862817 -0.06350934443256145
0000c0 00 00 00 00 00 00 00 00 00 00 00 00 00 00 00 00
       0.0 0.0
0000d0 00 00 00 00 00 00 00 00 f8 8f 44 e5 b5 51 c7 3f
       0.0 0.18218110747068272
0000e0 00 00 00 00 00 00 00 00 00 00 00 00 00 00 00 00
       0.0 0.0
0000f0 7d 80 b2 55 87 e4 33 3f c6 85 70 0a 6f 47 b0 bf
       0.00030353836127439815 -0.06358999256965267

bias_subscale_4 f8 [1]
000000 c9 a8 4f 7c 13 9c e1 bf
       -0.5503022602036022

weight_subscale_5 f8 [1, 24]
000000 00 00 00 00 00 00 00 00 00 00 00 00 00 00 00 00
       0.0 0.0
000010 00 00 00 00 00 00 00 00 50 02 80 5a 47 ad e2 bf
       0.0 -0.5836521880701842
000020 a0 21 e1 6f d6 91 de bf be 7d 26 66 f9 83 c2 bf
       -0.4776512234280066 -0.1446525334149395
000030 f7 e0 33 cf 66 bd c7 3f 62 ea 9a 12 07 05 f1 3f
       0.18546757809941258 1.0637274481547583
000040 00 00 00 00 00 00 00 00 62 07 a7 95 6a a6 ad 3f
       0.0 0.05791028096019947
000050 00 00 00 00 00 00 00 00 cd 31 40 ff 8a f6 8d bf
       0.0 -0.01463039962256909
000060 00 00 00 00 00 00 00 00 00 00 00 00 00 00 00 00
       0.0 0.0
000070 15 f7 26 29 98 b3 c3 3f d1 b6 63 d3 41 a5 c9 3f
       0.15391828545937672 0.20035574743035636
000080 00 00 00 00 00 00 00 00 fc 06 32 49 51 4e ca 3f
       0.0 0.20551506113047668
000090 00 00 00 00 00 00 00 00 cc ea 64 4e d0 d7 ca 3f
       0.0 0.20971111133424924
0000a0 ca b6 bc 04 52 45 c8 3f 41 8c ef 76 dc 19 d7 3f
       0.18961549025828212 0.3609534417611862
0000b0 d6 e2 16 44 a2 13 e9 bf 42 ea e6 62 7f c5 c1 bf
       -0.7836467103835172 -0.13883964852523617

bias_subscale_5 f8 [1]
000000 36 80 f8 f6 74 1d ba 3f
       0.10201197652395497

weight_subscale_6 f8 [1, 24]
000000 01 0d 14 32 a3 32 f3 3f 3e 11 d1 0f ce 71 e5 bf
       1.1998626667198666 -0.6701422032279323
000010 00 00 00 00 00 00 00 00 6d 99 29 1b 37 3b e6 3f
       0.0 0.6947284250752951
000020 c6 27 b8 b1 3e 9c d2 3f 82 e7 7e c7 30 8d c4 3f
       0.2907864318409533 0.16055879345895724
000030 6b f0 d0 4a c3 72 e5 3f c1 91 b6 aa 5a 5d e3 bf
       0.6702591382268229 -0.6051457723847805
000040 00 00 00 00 00 00 00 00 00 00 00 00 00 00 00 00
       0.0 0.0
000050 00 00 00 00 00 00 00 00 f8 5e af cd a5 4a b3 bf
       0.0 -0.07535778304679386
000060 6d 06 9d e3 cf 4c ce 3f 00 00 00 00 00 00 00 00
       0.23671911825117622 0.0
000070 bf ba 91 97 5c d8 d8 3f 00 dd 2c 0e 53 c7 e5 3f
       0.38820566941914686 0.6805815960750863
000080 00 00 00 00 00 00 00 00 00 00 00 00 00 00 00 00
       0.0 0.0
000090 00 00 00 00 00 00 00 00 50 9f 45 e5 b9 4a b3 bf
       0.0 -0.07535898063144697
0000a0 00 00 00 00 00 00 00 00 a1 29 de b9 48 3a 84 3f
       0.0 0.009876793071971703
0000b0 00 00 00 00 00 00 00 00 00 00 00 00 00 00 00 00
       0.0 0.0

bias_subscale_6 f8 [1]
000000 12 05 50 d6 ba 2c e7 bf
       -0.7242101846497084

weight_subscale_7 f8 [1, 16]
000000 00 00 00 00 00 00 00 00 de 25 0e 3f 42 77 ec 3f
       0.0 0.8895579558895255
000010 00 00 00 00 00 00 00 00 c5 51 33 6a f3 6d e8 bf
       0.0 -0.763421733305727
000020 00 00 00 00 00 00 00 00 08 09 38 79 56 36 e5 3f
       0.0 0.6628830306583788
000030 1b ac 98 d8 9e 51 e5 3f 40 14 22 37 b5 d7 ea 3f
       0.6662134390256854 0.8388315274065761
000040 00 00 00 00 00 00 00 00 69 b8 14 11 24 55 d4 3f
       0.0 0.3176965872579616
000050 00 00 00 00 00 00 00 00 86 68 95 25 c5 89 c7 bf
       0.0 -0.18389190993440624
000060 14 9f ca bd 63 c5 cb bf d5 1d ef 5c 6f 56 c1 bf
       -0.21696135298884 -0.135450287225679
000070 94 a2 8f 46 0b 0c ad 3f 5c ae 86 99 1c 6e d2 3f
       0.05673251377431146 0.2879706858900357

bias_subscale_7 f8 [1]
000000 9a 86 ae a8 a5 c3 c3 3f
       0.1544081758157077

weight_subscale_8 f8 [1, 8]
000000 00 00 00 00 00 00 00 00 e2 79 ab fa fb 5f e2 3f
       0.0 0.5742168327231492
000010 00 00 00 00 00 00 00 00 d5 6a 93 db b0 63 e2 bf
       0.0 -0.5746692932692335
000020 99 56 df 60 26 63 ea 3f fa 76 f9 21 c0 90 d1 3f
       0.8246032611884458 0.27445987050837994
000030 8b a0 5e bc 11 b8 ca 3f 66 02 36 5b 7e b9 ce 3f
       0.2087423486493701 0.240035814797028

bias_subscale_8 f8 [1]
000000 cd 7d d7 b8 f9 10 d6 3f
       0.3447861008735032

weight_subscale_9 f8 [1, 8]
000000 00 00 00 00 00 00 00 00 bf ab bc e9 47 9a de 3f
       0.0 0.47816655946615677
000010 00 00 00 00 00 00 00 00 0f 5f fb f4 1e d3 ed bf
       0.0 -0.9320215973666296
000020 f8 cf a8 82 ee 9e d8 bf 89 2c 62 b1 1e c1 b0 bf
       -0.3847004199953967 -0.06544677572871839
000030 3e 8a 3c a8 83 fe cc 3f 68 70 93 dc 37 51 ea 3f
       0.22651715960189905 0.8224143322108945

bias_subscale_9 f8 [1]
000000 76 6e 4b 66 f0 1c c6 3f
       0.17275815005165257

weight_output f8 [1, 10]
000000 40 d3 61 fd c3 74 fa 3f fa d3 81 68 be d0 03 40
       1.6535072229136887 2.4769256748791095
000010 28 e0 2b 93 31 8f 00 40 5e c5 15 16 4f 0a dd 3f
       2.069918775345304 0.453754207198548
000020 ef 6d 40 f3 92 e8 02 40 83 47 e9 a0 2c bd f0 3f
       2.363561535266619 1.0461851392360308
000030 e4 46 d8 2d 4d 89 07 40 68 01 bc ad 11 d8 fc 3f
       2.94204173866534 1.8027512346744405
000040 48 37 29 4b aa 40 f1 3f 46 06 f3 9c e2 35 cc 3f
       1.0782874046303323 0.2203944460252833

bias_output f8 [1]
000000 b3 af 9f cb 5a 8a 20 c0
       -8.270223963969192
